model.pth (torch, 209599 bytes, 9 tensors)

lstm.weight_ih_l0 f4 [256, 5]
0.04930301 0.11393699 -0.02132672 -0.016816854 -0.106947795 0.05339703 0.061536297 -0.10558607
-0.10800803 -0.10924664 0.12425518 0.07234667 -0.110795856 -0.0070603937 -0.087331936 0.030168965
-0.059209168 -0.054048568 0.004955128 0.025581926 0.04066834 0.031043053 0.10460813 -0.006607279
0.045655966 -0.056910276 -0.02460748 -0.036543608 -0.025546446 0.034276634 0.08797191 0.11638425
0.10318768 0.057541877 0.11292109 -0.08975831 0.09577292 0.0872463 0.06686638 0.111423224
0.021517083 -0.09167111 0.0973078 -0.056062996 0.012614936 -0.013268486 0.009425759 -0.018013462
-0.0019155443 0.11706805 0.07304022 -0.025998011 -0.08372961 0.015531361 -0.014548361 0.07046731
0.06831065 -0.008231625 -0.06683485 -0.02264674 -0.016903058 -0.01498656 -0.032703206 -0.022720367
0.08322072 -0.105892316 -0.12369564 -0.030998498 -0.07224311 0.015217125 0.115335196 -0.091467485
0.095092386 0.09431647 -0.12025277 -0.049736142 0.0998451 -0.061250523 0.107841045 -0.05945234
0.09192099 -0.09833029 -0.021069035 0.049648 -0.040981323 0.0038660616 0.05613649 0.07130551
-0.08584079 0.054213777 0.01102598 0.023293063 -0.11369184 -0.11213113 0.09754586 0.123074904
-0.016066492 0.025359914 0.09165624 0.06820081 0.048688754 0.00052820146 -0.0789638 -0.08484328
-0.010678247 0.05666235 -0.061753556 -0.035302058 -0.06106922 0.061916977 0.012721822 0.11131209
-0.116824344 -0.06081082 -0.04285364 -0.055189997 -0.026802868 0.041448012 -0.076797366 0.1140057
-0.07349321 -0.10578525 0.09833598 -0.00024326146 0.047758475 -0.10597931 -0.11544803 0.12335728
0.069382474 0.029840007 0.11573431 0.011284918 -0.03208673 0.116606385 0.074713215 0.038317233
-0.105341434 0.090889454 0.08932783 -0.078391984 0.03020358 0.0788119 0.061894536 -0.08146906
-0.086566165 0.09710269 0.08504921 -0.055046305 0.04827845 -0.06378627 0.0005162209 0.110713094
0.013975993 -0.022705749 0.011510998 -0.0064216107 0.0048528165 0.06034836 -0.10745296 -0.0934495
0.113277346 0.015277773 -0.10912624 -0.057993665 -0.123899356 0.0890723 0.023746684 -0.096528634
0.06544298 -0.05620475 -0.057350487 0.0704875 -0.021435902 0.009583086 0.029704422 0.1205059
-0.11205895 0.03141795 0.03618127 -0.03808762 -0.10725492 0.044203073 0.101264596 0.045703024
-0.028989494 0.09929897 -0.08661075 -0.09104802 0.029858083 -0.06642765 0.120326415 -0.10360223
-0.0046447366 0.08297378 0.02828534 -0.04093367 -0.098940134 -0.023676023 -0.059361577 0.06765108
-0.09206313 0.031830892 0.02198127 -0.035662696 -0.10709211 -0.12085323 0.09402849 0.036882907
0.059110522 -0.11123519 -0.0147612095 -0.0655877 -0.093151435 0.038507923 0.042942584 -0.06531806
0.026014969 0.11412513 -0.08216283 0.108163 -0.08597347 0.0077849627 0.024693117 -0.087289944
0.030260682 0.01520744 -0.09677167 -0.102617264 -0.05974537 -0.022541866 0.06062931 0.02664645
-0.08701894 -0.058510736 0.020297885 0.034734428 0.078557 0.12220137 0.021341383 0.08214547
-0.039301857 -0.043816447 -0.077333406 0.06908506 -0.052150816 -0.0075756013 0.068411455 -0.09609082
-0.024081603 0.10798858 0.028938785 0.112981886 -0.05519983 0.009684235 -0.083271846 -0.063161656
00000000: f4f1 493d cc57 e93d 60b5 aebc 80c3 89bc
00000010: 7207 dbbd d8b6 5a3d 7c0d 7c3d 823d d8bd
00000020: 5033 ddbd b4bc dfbd 8079 fe3d 7e2a 943d
00000030: f0e8 e2bd e05a e7bb 16db b2bd e824 f73c
00000040: 5085 72bd 0862 5dbd a05e a23b 3091 d13c
00000050: d893 263d 004e fe3c ca3c d63d e081 d8bb
00000060: c001 3b3d c01a 69bd a095 c9bc c0ae 15bd
00000070: c846 d1bc a865 0c3d 9e2a b43d de5a ee3d
00000080: 1054 d33d 08b1 6b3d 2c43 e73d 34d3 b7bd
00000090: 9824 c43d 30ae b23d 3ef1 883d dc31 e43d
000000a0: 9844 b03c 10be bbbd 5049 c73d 50a2 65bd
000000b0: e0ae 4e3c 1064 59bc 806e 1a3c f890 93bc
000000c0: 0013 fbba 60c1 ef3d 1c96 953d c8f9 d4bc
000000d0: 6e7a abbd 4077 7e3c 405c 6ebc 2a51 903d
000000e0: 74e6 8b3d f0dd 06bc b6e0 88bd a885 b9bc
000000f0: 4878 8abc 308a 75bc ccf3 05bd 1020 babc
00000100: a06f aa3d 12de d8bd 2454 fdbd 90f0 fdbc
00000110: 32f4 93bd 4051 793c dc34 ec3d 4e53 bbbd
00000120: ccbf c23d fe28 c13d 1647 f6bd 20b8 4bbd
00000130: 967b cc3d d4e1 7abd c4db dc3d 4c84 73bd
00000140: 1241 bc3d 6461 c9bd f898 acbc b45b 4b3d
00000150: 08dc 27bd c05d 7d3b 60ef 653d a008 923d
00000160: 4ccd afbd 440f 5e3d 50a6 343c 18d1 be3c
00000170: 44d7 e8bd 02a5 e5bd 20c6 c73d b20e fc3d
00000180: e09d 83bc 98bf cf3c 44b6 bb3d deac 8b3d
00000190: dc6d 473d 0077 0a3a c6b7 a1bd 50c2 adbd
000001a0: d0f3 2ebc c816 683d 4cf1 7cbd e498 10bd
000001b0: b823 7abd a89c 7d3d 306f 503c 98f7 e33d
000001c0: 9a41 efbd c414 79bd 4c87 2fbd e80e 62bd
000001d0: b091 dbbc 64c5 293d f047 9dbd d27b e93d
000001e0: 9c83 96bd f0a5 d8bd 6064 c93d 0014 7fb9
000001f0: 649e 433d ae0b d9bd 0470 ecbd bea2 fc3d
00000200: 6618 8e3d 0873 f43c 1c06 ed3d 60e4 383c
00000210: 606d 03bd 54cf ee3d 3e03 993d 88f2 1c3d
00000220: 40bd d7bd 4024 ba3d 82f1 b63d fa8b a0bd
00000230: 806d f73c 2268 a13d 2085 7d3d 40d9 a6bd
00000240: 9a49 b1bd c6dd c63d 482e ae3d 3c78 61bd
00000250: a0bf 453d 60a2 82bd 0053 073a 8cbd e23d
00000260: 90fb 643c 6801 babc a098 3c3c 606c d2bb
00000270: 6004 9f3b d82f 773d 4c10 dcbd 7462 bfbd
00000280: f4fd e73d a04f 7a3c 947d dfbd c48a 6dbd
00000290: f2be fdbd 8a6b b63d 6888 c23c ceb0 c5bd
000002a0: f806 863d f436 66bd 58e8 6abd c05b 903d
000002b0: 589a afbc 6002 1d3c b056 f33c cccb f63d
000002c0: 2a7f e5bd 1cb0 003d d032 143d c401 1cbd
000002d0: 78a8 dbbd 480e 353d d063 cf3d 1833 3b3d
000002e0: 607b edbc 425d cb3d fa60 b1bd 6277 babd
000002f0: f098 f43c 380b 88bd b26d f63d 682d d4bd
00000300: e032 98bb 28ee a93d a8b6 e73c 10aa 27bd
00000310: 20a1 cabd 38f4 c1bc 2025 73bd a68c 8a3d
00000320: 988b bcbd 1c61 023d 1012 b43c 0c13 12bd
00000330: 1c53 dbbd e681 f7bd 0292 c03d 8812 173d
00000340: e01d 723d 46cf e3bd 00d9 71bc d852 86bd
00000350: 2ec6 bebd 7cba 1d3d 90e4 2f3d 7ac5 85bd
00000360: 581d d53c 70ba e93d fc44 a8bd 9084 dd3d
00000370: dc12 b0bd 0019 ff3b 3849 ca3c 12c5 b2bd
00000380: 40e5 f73c a028 793c 3a30 c6bd 0029 d2bd
00000390: 90b7 74bd b8a9 b8bc 7056 783d a849 da3c
000003a0: fc36 b2bd f4a8 6fbd c047 a63c b045 0e3d
000003b0: 7ee2 a03d b644 fa3d 20d4 ae3c e23b a83d
000003c0: fcfa 20bd e078 33bd fa60 9ebd 787c 8d3d
000003d0: 189c 55bd c03c f8bb 4e1b 8c3d 44cb c4bd
000003e0: c846 c5bc 1e29 dd3d 0811 ed3c 0c63 e73d
000003f0: 3819 62bd a0aa 1e3c 6e8a aabd e65a 81bd

lstm.weight_hh_l0 f4 [256, 64]
-0.032637328 0.03314987 0.0806362 0.0040790886 0.029123232 0.11271149 -0.023672596 0.007629633
0.026630402 0.11715926 0.08456552 -0.07192013 -0.020566553 -0.028750002 -0.100415096 -0.06894331
-0.08013919 0.06679177 0.07335445 0.026981696 0.08268885 0.09767623 -0.03530702 -0.099635065
0.07135272 0.10887347 -0.045485675 -0.117993265 -0.069136694 0.030553356 -0.118421584 -0.083346084
-0.11014277 -0.11173758 0.039896935 -0.036558583 0.060056537 -0.08747116 -0.009973854 -0.058834672
-0.041437224 0.11970237 0.06458154 -0.12462403 -0.07833074 -0.009644628 -0.04591492 -0.1120424
0.01097773 0.12223473 -0.07327308 -0.020268783 0.0018146485 -0.057115927 0.10170412 0.06511937
0.08361077 -0.055852234 -0.0673956 -0.04944688 -0.026367232 0.11524381 0.056549534 0.010225058
-0.08539133 0.027885675 -0.087275386 0.06416172 0.066807166 0.10024136 0.06685318 -0.11063394
-0.023472086 -0.0070257187 0.04552281 -0.107658416 0.11914882 0.060698897 -0.027557448 -0.012379557
-0.09145936 -0.07795422 0.10896169 -0.0047061294 0.09018859 0.103873655 0.009399027 0.0091340095
0.0642353 0.08805972 -0.07727058 -0.060691744 -0.11517084 0.07869263 -0.046776682 -0.08311957
-0.082137436 0.11221145 -0.016373605 0.07539426 -0.011353672 -0.119433194 -0.017023921 -0.057566628
0.07696742 -0.0676194 0.11440198 0.102643624 -0.07576369 0.021938577 -0.030031294 0.008927345
-0.050919443 0.017821282 -0.0024424195 0.004449606 0.028650641 -0.024477616 -0.019960165 0.048560202
0.102889344 0.022268742 0.008467108 -0.055699274 -0.116899714 0.06513235 -0.07511328 -0.04402682
0.086524814 -0.04530041 0.09494066 -0.060608104 0.1207324 -0.09478231 0.12067896 -0.049174055
0.037832037 -0.07129717 0.03497447 -0.009212792 0.02906105 -0.01145719 -0.089027226 -0.06271079
-0.06641795 -0.015671834 -0.015858322 -0.122926146 0.0070787966 -0.0680345 -0.023970231 -0.006987095
0.029595762 -0.06571995 0.052579686 0.07081826 -0.08177096 -0.0969623 0.0020330846 -0.021852702
0.0189811 0.011325955 0.04731539 -0.021640226 -0.11553386 0.05235043 -0.10462199 0.048544094
-0.060524672 0.10779454 -0.111597076 -0.0714194 0.0038411468 -0.029291436 0.03482859 -0.0028122962
0.07285744 0.020708159 0.10440047 0.031157538 -0.05145821 0.08019912 -0.083832026 -0.078899354
0.029290691 -0.008379236 0.061754465 0.053884923 0.009829402 0.07781124 0.03953074 -0.11884461
0.06321032 0.074957564 0.11593354 -0.007877469 -0.05495508 -0.089571476 -0.003629014 0.08870113
-0.02121085 0.062088102 -0.07347396 -0.080617085 -0.05987306 0.08778177 -0.009963736 -0.048543498
0.08874029 -0.002316445 0.03994243 -0.04562585 0.07992692 -0.06233892 -0.12005018 -0.07414593
0.016368926 -0.12170431 -0.039549217 -0.027989075 -0.016224101 0.04785131 -0.078060195 -0.044121116
0.10239804 -0.039176345 0.12281814 -0.047215164 -0.08797485 -0.033430815 -0.03882584 -0.10512674
-0.024015471 -0.10245797 0.08160952 0.1229551 -0.11393036 -0.015526265 -0.124403805 0.08714172
-0.111043826 -0.08516361 0.092314616 0.08755669 0.027477875 -0.082706586 0.052714318 -0.02967894
-0.12374927 -0.06501059 -0.067658976 0.0755641 -0.1044687 0.019425958 0.04906121 0.06964615
00000000: b8ae 05bd 28c8 073d 9824 a53d e0a9 853b
00000010: d893 ee3c 48d5 e63d 08ed c1bc 0002 fa3b
00000020: 0028 da3c 32f1 ef3d b030 ad3d dc4a 93bd
00000030: 307b a8bc 2085 ebbc 6ea6 cdbd 2632 8dbd
00000040: 0420 a4bd 20ca 883d dc3a 963d b808 dd3c
00000050: c658 a93d 7a0a c83d 189e 10bd 780d ccbd
00000060: 6021 923d 0ef9 de3d 304f 3abd 74a6 f1bd
00000070: 8a97 8dbd 084b fa3c 0487 f2bd 5ab1 aabd
00000080: 8892 e1bd acd6 e4bd f86a 233d 74be 15bd
00000090: d8fd 753d 1424 b3bd 6069 23bc a0fc 70bd
000000a0: 14ba 29bd 8426 f53d 5443 843d e23a ffbd
000000b0: de6b a0bd 8004 1ebc 4811 3cbd 7c76 e5bd
000000c0: f0db 333c 3456 fa3d 3210 96bd b80a a6bc
000000d0: 80d9 ed3a 64f2 69bd 404a d03d 4e5d 853d
000000e0: 203c ab3d 50c5 64bd b406 8abd d088 4abd
000000f0: 1800 d8bc f204 ec3d 7ca0 673d 0087 273c
00000100: a6e1 aebd 8070 e43c 70bd b2bd 3867 833d
00000110: 32d2 883d 584b cd3d 52ea 883d 0c94 e2bd
00000120: 8848 c0bc 0038 e6bb 2076 3a3d 047c dcbd
00000130: 4c04 f43d 689f 783d 28c0 e1bc a0d3 4abc
00000140: 0c4f bbbd 76a6 9fbd 4e27 df3d e035 9abb
00000150: ccb4 b83d b6bb d43d 60fe 193c d0a6 153c
00000160: cc8d 833d a858 b43d 0a40 9ebd e897 78bd
00000170: b0de ebbd 9a29 a13d e898 3fbd 983a aabd
00000180: ac37 a8bd 1ecf e53d f021 86bc 4e68 9a3d
00000190: c004 3abc 6499 f4bd c075 8bbc fcca 6bbd
000001a0: 18a1 9d3d 0a7c 8abd 964b ea3d d236 d23d
000001b0: fe29 9bbd 88b8 b33c 3004 f6bc 0044 123c
000001c0: e890 50bd f0fd 913c 0011 20bb 00ce 913b
000001d0: c0b4 ea3c 4885 c8bc 8083 a3bc 10e7 463d
000001e0: a6b7 d23d f06c b63c a0b9 0a3c ec24 64bd
000001f0: 1e69 efbd 1c64 853d fed4 99bd 7855 34bd
00000200: ec33 b13d ec8c 39bd 4070 c23d 3440 78bd
00000210: 8c42 f73d 3a1d c2bd 8826 f73d bc6a 49bd
00000220: c4f5 1a3d 4004 92bd 6441 0f3d 40f1 16bc
00000230: 7011 ee3c f0b6 3bbc e853 b6bd 846e 80bd
00000240: 2206 88bd 3862 80bc 50e9 81bc b4c0 fbbd
00000250: 40f5 e73b ac55 8bbd 385d c4bc 00f4 e4bb
00000260: d072 f23c 2e98 86bd cc5d 573d 2a09 913d
00000270: 8877 a7bd 2c94 c6bd 803d 053b 7004 b3bc
00000280: 407e 9b3c 8090 393c c8cd 413d d846 b1bc
00000290: 049d ecbd 686d 563d 0e44 d6bd 2cd6 463d
000002a0: b8e8 77bd 62c3 dc3d 028d e4bd 5644 92bd
000002b0: c0bb 7b3b 98f4 efbc 6ca8 0e3d 804e 38bb
000002c0: 4836 953d 28a4 a93c eacf d53d 183e ff3c
000002d0: d8c5 52bd 703f a43d 20b0 abbd fc95 a1bd
000002e0: 08f3 ef3c 1049 09bc 40f2 7c3d 70b6 5c3d
000002f0: 800b 213c 805b 9f3d fcea 213d ce64 f3bd
00000300: 6a74 813d 5a83 993d 906e ed3d 8010 01bc
00000310: 9418 61bd 4071 b7bd c0d4 6dbb f0a8 b53d
00000320: 60c2 adbc 1850 7e3d 8479 96bd 921a a5bd
00000330: 743d 75bd eec6 b33d f03e 23bc 8cd5 46bd
00000340: 78bd b53d 80cf 17bb ac9a 233d 2ce2 3abd
00000350: bab0 a33d 1857 7fbd dedc f5bd d2d9 97bd
00000360: 2018 863c 1c40 f9bd 5cfe 21bd 5849 e5bc
00000370: 68e8 84bc bcff 433d 06de 9fbd 58b8 34bd
00000380: 10b6 d13d 6077 20bd 1488 fb3d b064 41bd
00000390: 282c b4bd c0ee 08bd d807 1fbd b04c d7bd
000003a0: 18bc c4bc 7cd5 d1bd e422 a73d e2cf fb3d
000003b0: 5254 e9bd e061 7ebc 6cc7 febd 5c77 b23d
000003c0: f26a e3bd 426a aebd 720f bd3d ec50 b33d
000003d0: 4819 e13c 1262 a9bd f8ea 573d 4021 f3bc
000003e0: 4270 fdbd 4624 85bd ca90 8abd 5ac1 9a3d
000003f0: b0f3 d5bd 3023 9f3c 68f4 483d a4a2 8e3d

lstm.bias_ih_l0 f4 [256]
-0.039390653 -0.07927477 0.08928287 -0.12056212 -0.059559017 -0.01673001 0.0032007545 -0.02577427
0.031717762 -0.08550447 -0.110204205 0.11409351 -0.08471419 0.08475669 -0.057083562 -0.00209485
-0.016860694 -0.027625114 -0.06612545 -0.08971813 0.04271643 -0.062244177 0.08016607 0.018852338
0.03477186 0.04261473 0.11532228 -0.11370149 0.007203847 0.00065623224 0.037566066 -0.055378065
-0.0006992817 0.06233643 0.09119713 0.07808715 0.11927925 0.11996989 -0.093258604 -0.04293333
-0.03400506 -0.11443648 -0.076107204 -0.08685991 0.005160615 -0.07186374 -0.11747576 -0.03374575
0.111493245 0.0056937337 0.10072477 0.08759947 0.11969802 -0.07009633 -0.038154557 0.009013608
0.108995736 -0.10105924 0.05275306 -0.08535218 -0.119971246 0.11987952 -0.044774577 0.07116255
-0.10181038 0.065046266 0.09110239 0.11334835 0.031467333 -0.023869663 -0.05115454 0.050569996
-0.10572629 -0.032301575 -0.005681619 -0.005562097 -0.04678093 0.121726364 0.055227503 0.057166934
0.06969006 0.05711925 0.0574767 0.08740567 0.122289196 0.039995834 -0.085597605 0.08068898
-0.022340313 -0.099513784 -0.08952539 -0.012841776 0.048711956 -0.03712079 -0.028351754 -0.014621556
-0.06754018 0.0343713 -0.015962899 0.08189261 0.004270777 0.015167043 0.07097982 -0.019047305
-0.033935204 -0.10871923 -0.030959666 0.08890127 0.10587704 0.008833125 -0.07674432 0.017612115
-0.08480275 -0.05284871 0.012068808 -0.016815677 0.07318531 0.0896485 -0.0020118207 -0.08877754
-0.041923538 -0.02331008 0.076006964 -0.11806871 -0.061407685 -0.03304118 -0.037177354 0.0015890747
0.10928474 -0.08758548 0.11363208 0.0834973 0.018257841 -0.08028622 -0.05633937 -0.1121577
0.113117814 -0.042796522 0.04900974 -0.06113909 -0.051623985 -0.101375684 -0.06136687 -0.03487934
0.085485086 -0.018323898 -0.014046967 -0.06580751 0.08134748 0.044664815 -0.12416598 0.049050897
0.014040321 0.014396042 0.10387029 -0.063715205 0.09428224 -0.023754478 0.10287614 -0.027678609
0.010962218 0.062441528 -0.079711705 -0.07642461 0.04090886 -0.04983604 0.029705077 -0.095342815
-0.013603002 0.03003724 -0.06900376 -0.07278423 0.0028061867 -0.036517248 -0.046345994 0.043324918
-0.0036041737 0.024072245 -0.08674428 -0.112462685 -0.066048026 0.0909978 -0.11901948 0.11897251
-0.028673247 -0.057471275 -0.014328897 -0.07506417 0.11824174 0.014606595 -0.06077136 -0.08011162
0.031300306 0.081937075 -0.055150956 -0.043934166 -0.007305354 -0.036768466 0.057211056 -0.06965369
-0.016624942 0.025140733 0.10379475 0.08896482 0.07873863 -0.024530694 -0.06964305 0.020176053
-0.016095832 0.12029427 -0.04974687 0.050426714 -0.048912063 -0.110307455 -0.08576523 0.03559245
-0.0032345504 -0.050211176 -0.112727806 -0.023674116 0.08887786 0.042501435 0.09724037 0.12367767
0.030388147 0.06727749 0.022279084 0.09735803 -0.12261282 0.09246047 -0.09906967 0.10257147
-0.0687864 -0.016795427 -0.057626262 -0.085339665 0.06931099 0.029487625 -0.0831735 0.11074525
-0.00024457276 -0.010494575 0.0771922 -0.1107752 0.06971407 0.05035533 -0.1249048 0.10489783
-0.09545559 0.033242688 0.11480567 -0.07132967 -0.08448017 0.043566167 0.08794066 -0.05236335
00000000: 1858 21bd d05a a2bd f0d9 b63d 46e9 f6bd
00000010: 28f4 73bd 600d 89bc c0c3 513b 9024 d3bc
00000020: 7cea 013d f81c afbd beb2 e1bd dca9 e93d
00000030: a27e adbd ea94 ad3d 74d0 69bd c049 09bb
00000040: 701f 8abc 104e e2bc c86c 87bd 24be b7bd
00000050: 6cf7 2e3d c0f3 7ebd 1c2e a43d 3870 9a3c
00000060: f06c 0e3d c88c 2e3d 162e ec3d 54dc e8bd
00000070: 400e ec3b 0007 2c3a e0de 193d 1cd4 62bd
00000080: 0050 37ba 7c54 7f3d 90c5 ba3d 28ec 9f3d
00000090: ae48 f43d c6b2 f53d 5efe bebd dcda 2fbd
000000a0: e448 0bbd ac5d eabd 18de 9bbd 9ce3 b1bd
000000b0: 601a a93b 4c2d 93bd 2297 f0bd fc38 0abd
000000c0: 9256 e43d 8092 ba3b ca48 ce3d 5a67 b33d
000000d0: 3c24 f53d aa8e 8fbd f447 1cbd d0ad 133c
000000e0: 2839 df3d 26f8 cebd 9813 583d 20cd aebd
000000f0: 7cb3 f5bd 6583 f53d 8c65 37bd acbd 913d
00000100: f681 d0bd fa36 853d e493 ba3d 2e23 e83d
00000110: e4e3 003d 508a c3bc 6c87 51bd 7c22 4f3d
00000120: 0687 d8bd a84e 04bd e02c babb 4042 b6bb
00000130: 5c9d 3fbd ac4b f93d 3c36 623d e027 6a3d
00000140: aab9 8e3d e0f5 693d b06c 6b3d be01 b33d
00000150: c272 fa3d acd2 233d cc4d afbd 4440 a53d
00000160: 0803 b7bc e2cd cbbd 1659 b7bd 5066 52bc
00000170: 3086 473d f80b 18bd f041 e8bc 408f 6fbc
00000180: 8252 8abd ecc8 0c3d a0c4 82bc 50b7 a73d
00000190: e0f1 8b3b 307f 783c de5d 913d 1809 9cbc
000001a0: a4ff 0abd 30a8 debd 209f fdbc de11 b63d
000001b0: 10d6 d83d d0b8 103c 202c 9dbd 4847 903c
000001c0: 10ad adbd e477 58bd 40bc 453c 08c1 89bc
000001d0: 2ee2 953d a299 b73d c0d8 03bb 00d1 b5bd
000001e0: 04b8 2bbd c8f4 bebc 8aa9 9b3d 02ce f1bd
000001f0: a086 7bbd 3056 07bd 4847 18bd 8048 d03a
00000200: aed0 df3d 0460 b3bd f0b7 e83d a200 ab3d
00000210: 7891 953c 1a6d a4bd 1cc4 66bd f0b2 e5bd
00000220: 50aa e73d 684b 2fbd 70be 483d fc6c 7abd
00000230: ac73 53bd 0e9e cfbd d45b 7bbd a4dd 0ebd
00000240: ce12 af3d 001c 96bc 4025 66bc 16c6 86bd
00000250: 8299 a63d 74f2 363d bc4a febd 98e9 483d
00000260: 6009 663c 60dd 6b3c f2b9 d43d 1e7d 82bd
00000270: 0c17 c13d c098 c2bc bab0 d23d 40be e2bc
00000280: e09a 333c b0c2 7f3d e43f a3bd 8284 9cbd
00000290: 0c90 273d e020 4cbd 1058 f33c 1843 c3bd
000002a0: 20df 5ebc a810 f63c d851 8dbd e60f 95bd
000002b0: 00e8 373b 1c93 15bd 4cd5 3dbd 7875 313d
000002c0: 0034 6cbb 2833 c53c fca6 b1bd d652 e6bd
000002d0: 3044 87bd 0e5d ba3d 7cc0 f3bd dca7 f33d
000002e0: 28e4 eabc 0067 6bbd c0c3 6abc 3ebb 99bd
000002f0: ba28 f23d 8050 6f3c 64eb 78bd 9011 a4bd
00000300: c034 003d a0ce a73d f8e5 61bd 50f4 33bd
00000310: c061 efbb 889a 16bd 2456 6a3d 98a6 8ebd
00000320: 0831 88bc f0f3 cd3c 5892 d43d 3033 b63d
00000330: b841 a13d 98f4 c8bc 04a1 8ebd 4048 a53c
00000340: 68db 83bc d85c f63d 60c3 4bbd 3e8c 4e3d
00000350: 0458 48bd e0e8 e1bd aea5 afbd 64c9 113d
00000360: c0fa 53bb 3caa 4dbd d6dd e6bd 38f0 c1bc
00000370: 9805 b63d fc15 2e3d f625 c73d b84a fd3d
00000380: 90f0 f83c c8c8 893d a082 b63c a663 c73d
00000390: 6e1c fbbd ea5b bd3d 0ae5 cabd fe10 d23d
000003a0: e2df 8cbd 9096 89bc 8409 6cbd 90c6 aebd
000003b0: ecf2 8d3d 0890 f13c de56 aabd 68ce e23d
000003c0: 003a 80b9 70f1 2bbc f216 9e3d 1cde e2bd
000003d0: 40c6 8e3d 6441 4e3d 16ce ffbd acd4 d63d
000003e0: 387e c3bd 7c29 083d 3c1f eb3d 4a15 92bd
000003f0: f003 adbd 7072 323d 3c1a b43d f47a 56bd

lstm.bias_hh_l0 f4 [256]
-0.024858832 -0.06514454 -0.105014265 0.024722576 -0.013567582 -0.034234747 0.11456041 -0.0015513748
-0.10207939 0.087349504 0.05194156 -0.10427454 -0.116717815 0.013933778 0.0035940707 0.12438719
-0.030838624 0.013720259 -0.041004956 0.06982377 -0.03781797 -0.09700276 0.03501813 -0.118760824
0.010868683 0.027468175 -0.09498441 0.0195342 -0.09705596 0.087574646 0.123410314 0.033289433
-0.042410344 0.08795835 0.09136045 0.0732723 -0.011383757 -0.03310226 0.10600208 0.1146308
0.03585002 0.11637893 0.03479968 -0.07493828 -0.0010744184 -0.042361423 -0.11814585 -0.10107553
-0.051707834 -0.047313377 -0.090509534 0.048612386 0.11479053 0.022864252 0.09992252 -0.09048094
-0.081518754 -0.094689906 -0.008269936 0.11735326 0.07139985 0.10847569 0.008030489 0.06181696
-0.061108306 0.016659409 0.11301854 0.0077822804 0.0728133 0.06340921 -0.074310824 0.044877976
0.10969502 0.04499109 -0.016613722 0.04072328 -0.10200946 -0.0947732 -0.044721335 -0.066722676
0.09494589 0.022915632 0.029876068 -0.027160019 -0.040053785 0.008724228 0.00765495 0.09432274
0.06827775 -0.11679281 0.038228318 -0.063925326 0.07729447 0.026687235 -0.028902918 0.107373595
-0.012646019 0.067744225 -0.10983214 -0.028924823 -0.037821367 -0.028643414 0.048107788 0.052420214
-0.042979896 -0.074496984 0.060135722 0.020194352 -0.11022653 0.113244414 -0.053928614 -0.0042991787
-0.10994217 -0.12389231 -0.07368469 0.066092625 -0.115832895 0.11346482 0.11122635 0.054556757
0.09425829 0.11487535 -0.0020153373 0.09589271 0.025603697 0.12425257 0.10160504 -0.06653765
0.08926198 0.038032934 0.12131572 0.03369941 -0.11375727 -0.021806777 -0.07441376 -0.1104303
-0.01653482 0.10587801 -0.03185892 -0.089752465 -0.028844208 -0.11227368 0.0070872605 0.035895094
0.08720821 -0.101520404 -0.072585925 0.016644314 0.005649224 0.06397647 -0.098154396 -0.013466343
-0.0055225343 -0.0661459 0.09839679 0.0531632 0.028543785 0.10499489 0.019386947 -0.09485549
0.09901655 0.050702095 -0.093746915 -0.019030303 0.08683945 0.03406501 0.04329978 -0.017051667
0.10729854 -0.041974843 0.0275985 -0.057202443 0.02341628 -0.04956816 -0.084885955 -0.0032642782
-0.053310633 -0.008130103 -0.031813413 -0.07097381 0.01629652 -0.07282846 0.075613186 -0.0027549863
0.0006107241 -0.054845914 -0.037967965 -0.052711904 0.039501905 0.09163469 0.026817352 -0.07083213
-0.0424449 0.057059526 0.083069816 0.109752625 0.0228675 -0.09078857 0.04635997 0.097298056
0.071955696 -0.11965811 -0.051223367 0.016027316 0.064334065 0.099790305 -0.08612956 -0.11898443
0.008710355 0.016050547 0.10624403 -0.032764487 0.040860564 -0.08449377 -0.022976175 -0.0071304142
0.0759581 -0.025100797 0.037223205 0.021065444 0.061032534 -0.07267347 -0.01706636 0.010626331
0.069626555 0.06929976 -0.03609863 -0.042724907 0.016988575 0.09637073 0.103769645 0.07661985
0.11014606 0.017464682 -0.06347786 0.039599106 -0.07834378 0.07965787 -0.016815946 0.11394577
-0.0030937046 0.020356998 -0.060414717 -0.045519993 0.036728755 -0.10195507 0.008678421 0.055526763
-0.06130661 -0.09903148 -0.038923323 -0.04632297 0.024617106 -0.045104697 -0.049024716 0.07619424
00000000: c0a4 cbbc 806a 85bd b811 d7bd 0087 ca3c
00000010: 904a 5ebc bc39 0cbd a69e ea3d 8057 cbba
00000020: 000f d1bd 4ce4 b23d acc0 543d e48d d5bd
00000030: c009 efbd 804a 643c 808a 6b3b b6be fe3d
00000040: 48a1 fcbc f0ca 603c d0f4 27bd c4ff 8e3d
00000050: 04e7 1abd 62a9 c6bd 2c6f 0f3d e038 f3bd
00000060: 9012 323c f004 e13c 3087 c2bd 3006 a03c
00000070: 46c5 c6bd 565a b33d 8cbe fc3d 805a 083d
00000080: 78b6 2dbd 8223 b43d 301b bb3d ca0f 963d
00000090: f082 3abc 3c96 07bd 9e17 d93d 8ec3 ea3d
000000a0: 78d7 123d 1458 ee3d 1c8a 0e3d 3e79 99bd
000000b0: 80d3 8cba 2c83 2dbd 74f6 f1bd b000 cfbd
000000c0: 98cb 53bd accb 41bd 105d b9bd c81d 473d
000000d0: 4c17 eb3d d04d bb3c 2ea4 cc3d 124e b9bd
000000e0: 4ef3 a6bd c8ec c1bd a07e 07bc e856 f03d
000000f0: 163a 923d 8128 de3d 5092 033c c833 7d3d
00000100: b44c 7abd 5079 883c 4476 e73d 8002 ff3b
00000110: 241f 953d b0dc 813d 4630 98bd f8d1 373d
00000120: c8a7 e03d 9448 383d 8019 88bc 74cd 263d
00000130: 56ea d0bd 7418 c2bd b82d 37bd e6a5 88bd
00000140: fe72 c23d 90b9 bb3c a8be f43c b07e debc
00000150: 700f 24bd 10f0 0e3c 60d6 fa3b 482c c13d
00000160: 34d5 8b3d 1231 efbd 4c95 1c3d 48eb 82bd
00000170: 904c 9e3d 309f da3c d0c5 ecbc b0e6 db3d
00000180: 4031 4fbc 7cbd 8a3d acef e0bd c0f3 ecbc
00000190: 94ea 1abd 98a5 eabc ac0c 453d 94b6 563d
000001a0: b00b 30bd e091 98bd e050 763d a06e a53c
000001b0: 72be e1bd b0ec e73d 40e4 5cbd 20e0 8cbb
000001c0: 5c29 e1bd 40bb fdbd 00e8 96bd 925b 873d
000001d0: cc39 edbd 3e60 e83d a4ca e33d e876 5f3d
000001e0: 7e0a c13d c443 eb3d c013 04bb 6663 c43d
000001f0: d8be d13c 2278 fe3d 4e16 d03d e444 88bd
00000200: fcce b63d 6cc8 1b3d 6074 f83d 6408 0a3d
00000210: 92f9 e8bd 20a4 b2bc 3e66 98bd 4829 e2bd
00000220: 0874 87bc 92d6 d83d 807e 02bd 24d0 b7bd
00000230: b04a ecbc beef e5bd 403c e83b bc06 133d
00000240: 389a b23d eee9 cfbd eea7 94bd a859 883c
00000250: 201d b93b 1806 833d 2c05 c9bd f0a1 5cbc
00000260: 60f6 b4bb 8077 87bd 4284 c93d a8c1 593d
00000270: a8d4 e93c 9007 d73d 60d1 9e3c 9843 c2bd
00000280: 30c9 ca3d 00ad 4f3d 62fe bfbd 70e5 9bbc
00000290: e2d8 b13d c087 0b3d 1c5b 313d f0af 8bbc
000002a0: 56bf db3d d0ed 2bbd 4016 e23c 1c4d 6abd
000002b0: 80d3 bf3c fc07 4bbd b0d8 adbd 80ed 55bb
000002c0: 405c 5abd 2034 05bc c84e 02bd b85a 91bd
000002d0: 4880 853c 1627 95bd 16db 9a3d 008d 34bb
000002e0: 0019 203a 1ca6 60bd 4c84 1bbd 70e8 57bd
000002f0: c0cc 213d f8aa bb3d 10b0 db3c 7010 91bd
00000300: b4da 2dbd 40b7 693d 8220 aa3d fcc5 e03d
00000310: a054 bb3c 5cef b9bd f4e3 3d3d 3444 c73d
00000320: 825d 933d 500f f5bd 98cf 51bd b84b 833c
00000330: 94c1 833d dc5e cc3d b264 b0bd 1cae f3bd
00000340: e0b5 0e3c 707c 833c 7896 d93d 0e34 06bd
00000350: 685d 273d 120b adbd 8838 bcbc 40a6 e9bb
00000360: ec8f 9b3d 30a0 cdbc 5c77 183d 7091 ac3c
00000370: 40fd 793d d4d5 94bd c0ce 8bbc 101a 2e3c
00000380: 5e98 8e3d 08ed 8d3d 28dc 13bd 5000 2fbd
00000390: a02b 8b3c 045e c53d 2e85 d43d deea 9c3d
000003a0: 4294 e13d 1812 8f3c ae00 82bd ac32 223d
000003b0: b472 a0bd aa23 a33d 98c1 89bc 665c e93d
000003c0: c0bf 4abb b8c3 a63c 6c75 77bd 2c73 3abd
000003d0: e470 163d d2cd d0bd f02f 0e3c 0870 633d
000003e0: a41c 7bbd 04d1 cabd 106e 1fbd 28bd 3dbd
000003f0: d0a9 c93c b4bf 38bd 24ce 48bd ba0b 9c3d

lstm.weight_ih_l1 f4 [256, 64]
-0.01876977 0.06830853 -0.06790978 -0.04475689 -0.064463824 -0.031721845 0.08080631 -0.016244631
-0.12933013 0.029659286 -0.06823425 -0.091108605 -0.0630393 -0.029793758 0.049108475 0.029876724
0.111960545 0.10434629 -0.06533691 0.11329672 -0.07978816 0.118506715 -0.061343506 -0.05008755
-0.04452336 0.03238942 -0.12268977 0.018390402 0.09963526 -0.017623559 -0.093161695 -0.08504856
0.007878065 0.11425994 -0.077197105 -0.074836984 0.0848819 0.08144948 0.055628415 -0.009765902
-0.058871448 0.054437608 -0.011612445 0.14782332 0.09481086 -0.113605306 0.070473045 0.0706785
-0.018186972 0.13526745 0.0043130815 -0.018528312 0.09291627 -0.05297686 0.104468 -0.053083554
0.043693274 0.069849625 0.08880839 0.063853234 -0.07317835 -0.06060706 -0.044672474 0.034214035
-0.008030832 0.10195492 0.055847287 0.086558044 0.10088707 -0.080204755 -0.036942035 -0.006609802
0.027213207 0.08694744 0.016218856 0.04374288 0.097554915 -0.042628158 0.044221804 0.015844673
0.052782476 -0.022615 -0.06897024 0.08207331 0.061580583 -0.053204745 0.10582797 0.019539978
-0.02016151 -0.109142296 0.0072915256 -0.111885086 0.10406084 0.09016062 0.031325355 -0.08382231
-0.02475281 0.10177983 0.049390707 -0.106834754 0.06477231 0.042709365 0.018673694 -0.13583855
-0.10770403 -0.09329979 -0.07919642 0.0053277994 -0.0037442297 -0.110015586 0.016382897 -0.10238539
0.07622278 -0.06633371 -0.09563008 0.05854641 -0.02726855 0.03369263 0.09249158 0.026089504
-0.06392354 -0.05353585 -0.059002206 -0.017793268 -0.01827687 0.017741969 -0.012090325 0.0602324
0.035917297 -0.013965651 -0.01558511 0.051271737 0.061966617 0.026006058 -0.017159985 0.01849177
-0.027635781 -0.09154798 -0.02956149 -0.04458551 0.09657709 -0.085886754 0.089098975 0.08911353
0.0013218373 0.04405211 -0.037923943 0.05237293 -0.08618492 0.11045422 -0.0856245 -0.014658434
-0.14146012 -0.081498824 0.04766038 0.011280224 0.058705404 -0.09764287 0.033981476 -0.050760463
0.0100429505 0.09174581 -0.024241978 0.01131326 0.040022597 0.120721474 0.091292605 -0.012564568
-0.041610807 -0.123110384 -0.09190096 -0.047122605 0.05327788 0.10877177 -0.027049331 -0.03889495
-0.08212349 0.11598951 -0.1077555 0.08890359 -0.023210665 -0.0737655 -0.011525571 -0.06883271
-0.115682274 -0.08237569 0.11354154 0.117991045 -0.09345867 -0.03359916 0.0021859556 -0.010870695
-0.0724483 -0.050785065 0.08437064 0.09678221 0.049817156 -0.055948973 0.0041984175 -0.10082252
0.053052735 -0.0068950057 -0.121549755 0.03333147 0.063918956 -0.054053076 0.043192416 -0.12360388
-0.02690433 -0.08191194 0.05097988 -0.03231899 -0.04954849 0.0066221207 0.03292422 -0.12731087
-0.0027311945 -0.12695342 -0.012610972 0.090622425 0.05398038 -0.062126443 -0.10434002 -0.042639837
0.12478916 -0.061806574 -0.044864748 0.018074796 -0.053261817 -0.037779152 -0.016787576 0.06405623
0.08729209 0.05391161 0.10903573 0.03471393 0.10292454 -0.098981485 -0.06198456 0.118101195
-0.0013061166 0.010403169 0.0653307 -0.025200844 0.011260501 0.017978698 -0.082267344 0.09469977
0.0071671754 0.05035457 0.09020409 0.047635168 -0.11335863 0.08733724 0.050056666 0.066576496
00000000: 10c3 99bc 58e5 8b3d 4814 8bbd 0053 37bd
00000010: 9c05 84bd c4ee 01bd c77d a53d 7613 85bc
00000020: 1e6f 04be 08f8 f23c 66be 8bbd 2697 babd
00000030: c01a 81bd 0a12 f4bc f825 493d 08c0 f43c
00000040: 924b e53d 82b3 d53d 5ccf 85bd 1c08 e83d
00000050: fa67 a3bd a6b3 f23d 5443 7bbd 9a28 4dbd
00000060: 205e 36bd c5aa 043d c644 fbbd 78a7 963c
00000070: 920d cc3d 485f 90bc 8fcb bebd f02d aebd
00000080: 0013 013c 1e01 ea3d 8419 9ebd 2244 99bd
00000090: 90d6 ad3d fcce a63d 9fda 633d 2901 20bc
000000a0: 3023 71bd f8f9 5e3d 2042 3ebc ff5e 173e
000000b0: 322c c23d e6a9 e8bd 2c54 903d e4bf 903d
000000c0: d8fc 94bc 8d83 0a3e c054 8d3b b0c8 97bc
000000d0: e34a be3d 44fe 58bd 52f3 d53d 246e 59bd
000000e0: b8f7 323d 520d 8f3d 2ce1 b53d 7cc5 823d
000000f0: 88de 95bd 1c3f 78bd 7cfa 36bd 0424 0c3d
00000100: c093 03bc becd d03d 20c0 643d 5845 b13d
00000110: e19d ce3d 6442 a4bd 8850 17bd 0a97 d8bb
00000120: 3bee de3c 8011 b23d 68dd 843c bc2b 333d
00000130: dfca c73d dd9a 2ebd ec21 353d b0cc 813c
00000140: 7032 583d 1843 b9bc 4540 8dbd 0d16 a83d
00000150: ec3b 7c3d 38ed 59bd 56bc d83d 4e12 a03c
00000160: c029 a5bc ff85 dfbd c0ed ee3b 0224 e5bd
00000170: da1d d53d 22a6 b83d 044f 003d 08ab abbd
00000180: 68c6 cabc f271 d03d e94d 4a3d 2ecc dabd
00000190: 58a7 843d 04f0 2e3d 93f9 983c 4319 0bbe
000001a0: ee93 dcbd f613 bfbd bc31 a2bd d294 ae3b
000001b0: c061 75bb da4f e1bd 6d35 863c 6eaf d1bd
000001c0: b01a 9c3d f8d9 87bd b4d9 c3bd 5cce 6f3d
000001d0: 4b62 dfbc 4801 0a3d 3a6c bd3d a8b9 d53c
000001e0: 58ea 82bd 6848 5bbd 4cac 71bd 30c3 91bc
000001f0: 60b9 95bc 9b57 913c 8016 46bc 40b6 763d
00000200: 041e 133d 30d0 64bc b058 7fbc 5002 523d
00000210: b5d0 7d3d a80a d53c 1993 8cbc 0d7c 973c
00000220: 6f64 e2bc 827d bbbd f02a f2bc 4c9f 36bd
00000230: 36ca c53d 65e5 afbd 8679 b63d 2881 b63d
00000240: 8041 ad3a fc6f 343d 2356 1bbd ff84 563d
00000250: b881 b0bd d235 e23d e65b afbd ee29 70bc
00000260: ecda 10be dbe8 a6bd 8837 433d b0d0 383c
00000270: 1475 703d fcf8 c7bd 2930 0b3d 34ea 4fbd
00000280: 308b 243c 3ae5 bb3d 1d97 c6bc 405b 393c
00000290: bcee 233d d23c f73d 9ef7 ba3d 9edb 4dbc
000002a0: 1870 2abd 4c21 fcbd 9236 bcbd a203 41bd
000002b0: e839 5a3d bcc3 de3d 8f96 ddbc 5050 1fbd
000002c0: 5c30 a8bd e98b ed3d eaae dcbd 1613 b63d
000002d0: 4b24 bebc 5e12 97bd c0d5 3cbc 2af8 8cbd
000002e0: d4ea ecbd 96b4 a8bd 7888 e83d 4aa5 f13d
000002f0: 4267 bfbd 469f 09bd 4042 0f3b 001b 32bc
00000300: c65f 94bd 0004 50bd 84ca ac3d c035 c63d
00000310: 130d 4c3d c02a 65bd e192 893b 0a7c cebd
00000320: d34d 593d 80ef e1bb 14ef f8bd 9486 083d
00000330: f1e7 823d c266 5dbd 88ea 303d 0824 fdbd
00000340: 7866 dcbc 72c1 a7bd 47d0 503d eb60 04bd
00000350: 5cf3 4abd 60fe d83b 8cdb 063d c85d 02be
00000360: d7fd 32bb 1400 02be 409e 4ebc 4098 b93d
00000370: 881a 5d3d 4c78 7ebd 38b0 d5bd 1ca7 2ebd
00000380: 7691 ff3d e428 7dbd 19c4 37bd 9811 943c
00000390: 1029 5abd 50be 1abd 1986 89bc ea2f 833d
000003a0: 32c6 b23d 6cd2 5c3d 204e df3d 3230 0e3d
000003b0: 1aca d23d ceb6 cabd 86e3 7dbd 0adf f13d
000003c0: 0032 abba 0e72 2a3c 1acc 853d 0072 cebc
000003d0: f77d 383c 1048 933c c87b a8bd f4f1 c13d
000003e0: a0da ea3b 9840 4e3d ecbc b83d 181d 433d
000003f0: 9228 e8bd dedd b23d 3808 4d3d 4259 883d

lstm.weight_hh_l1 f4 [256, 64]
-0.062253594 0.06619131 0.0348784 -0.010190394 0.047703497 -0.08124907 0.048947386 -0.086146966
-0.13737595 0.086401395 -0.08977641 0.03175447 -0.043781612 -0.13953644 0.062163465 0.063550115
0.010089262 0.07195646 -0.07614376 -0.14726612 -0.079450145 -0.0038793636 -0.088789515 0.056423075
0.07881289 0.020493586 0.046823036 0.048633497 0.08217966 0.026089167 -0.04272593 -0.040110424
-0.07448575 -0.010153769 -0.038238447 0.042787064 -0.064318575 -0.022165144 -0.08319401 0.016608667
-0.14662814 0.08109541 -0.027701573 -0.04292806 0.02303004 -0.09486534 -0.0943265 0.045334626
0.022460846 0.09349889 -0.1041228 -0.028262457 0.15511768 0.085481614 0.14564128 0.049959917
0.046337754 -0.08559002 -0.09039556 -0.046906218 -0.03670323 0.05734591 -0.14588566 -0.013337153
-0.0074235005 0.055849753 -0.041771844 0.04684609 -0.11779733 -0.0491412 -0.045111116 0.05297878
0.099093325 0.05050175 -0.0021670503 0.08145807 0.12603295 -0.080522105 -0.02993475 -0.072478995
-0.034095224 0.013073138 -0.016995015 -0.12845065 0.06765279 -0.12970053 -0.08011494 -0.10457474
-0.035567723 0.063490525 -0.0021186506 0.03102925 -0.020003892 0.03361453 0.05490511 -0.007340047
-0.013242558 -0.09482863 -0.03142559 -0.027443333 -0.08882962 0.08233978 -0.039635416 -0.10632492
0.03445869 0.09989148 -0.09825463 0.07000355 -0.063764915 0.045827765 -0.15222871 -0.021459714
0.046381652 0.065285705 0.0063567376 0.0341438 0.059148308 -0.0664629 0.07215381 0.037280068
0.076293975 0.0051688305 -0.10360288 -0.06335025 -0.13647498 -0.09387136 -0.012498709 0.052155625
0.12987076 0.07930535 -0.08879501 -0.07940035 -0.08256512 -0.06304862 0.13997251 -0.036218826
-0.033118077 0.09789226 -0.121795915 0.023315867 0.06752835 0.03142087 -0.08538579 0.095828526
-0.084528856 0.049678564 0.0018608981 -0.10475744 -0.1326661 0.016393181 -0.07597207 0.009660735
-0.10893845 0.10131425 -0.1101809 -0.14941624 -0.040914703 0.05889068 -0.085196584 0.031421773
-0.023965178 -0.0037887834 0.06265786 0.033847123 -0.14611399 -0.07575535 -0.02757471 -0.08408796
-0.07639069 0.07015008 -0.028986985 -0.01712659 -0.13765989 -0.13830875 -0.054361593 -0.09514945
-0.10030909 0.06674726 0.0964824 -0.11728478 0.1169344 0.10648795 -0.06447517 -0.08345745
-0.09494165 0.062387258 -0.14644907 0.07359308 -0.13020469 -0.07085131 -0.15061766 -0.08161651
0.10571546 -0.09502753 0.029562715 -0.03406007 0.071404986 0.10122332 0.13432722 0.12136827
-0.0930328 0.03194639 -0.00690814 0.14067751 -0.04671932 0.043864276 -0.077666275 -0.023922607
-0.14225157 0.1098709 0.060806297 -0.07874145 0.055445697 -0.10015698 0.08966938 0.1379461
-0.07175566 0.0036147032 -0.014016984 0.038900062 0.035935197 -0.06016906 0.0052583423 -0.002584196
0.096818686 0.0908313 -0.12969288 0.07664595 0.04461235 0.025274528 -0.12526056 0.060598552
0.06574758 -0.07535441 -0.035405055 0.006144951 -0.07575547 0.030474572 0.064527415 -0.041142356
-0.07484773 -0.042663172 0.010026325 -0.0016178583 0.11910932 0.15520567 0.017803771 -0.012875378
-0.030183483 -0.028353635 0.057420075 0.11252679 0.07315836 -0.10365287 0.046262145 0.06174446
00000000: a0fd 7ebd 4f8f 873d a7dc 0e3d 9cf5 26bc
00000010: be64 433d ea65 a6bd 0e7d 483d d26d b0bd
00000020: 48ac 0cbe 37f3 b03d b2dc b7bd fa10 023d
00000030: 5954 33bd a4e2 0ebe 1e9f 7e3d 9026 823d
00000040: 6f4d 253c e95d 933d 42f1 9bbd eecc 16be
00000050: c2b6 a2bd ec3c 7ebb 47d7 b5bd e21b 673d
00000060: a768 a13d 2ae2 a73c 83c9 3f3d eb33 473d
00000070: cf4d a83d f3b8 d53c 6301 2fbd d44a 24bd
00000080: fc8b 98bd fe5b 26bc eb9f 1cbd 7d41 2f3d
00000090: 75b9 83bd ad93 b5bc 9f61 aabd e60e 883c
000000a0: b025 16be 5a15 a63d 69ee e2bc 55d5 2fbd
000000b0: 7fa9 bc3c c248 c2bd 412e c1bd cdb0 393d
000000c0: cfff b73c 597c bf3d 563e d5bd ab86 e7bc
000000d0: 2bd7 1e3e fc10 af3d fd22 153e c5a2 4c3d
000000e0: a8cc 3d3d d249 afbd 4f21 b9bd bc20 40bd
000000f0: 2056 16bd 8ce3 6a3d 0d63 15be 1384 5abc
00000100: d640 f3bb b6c2 643d f418 2bbd b0e1 3f3d
00000110: ba3f f1bd 4848 49bd 6fc6 38bd 4700 593d
00000120: 71f1 ca3d ecda 4e3d 1205 0ebb 7dd3 a63d
00000130: c80e 013e c6e8 a4bd b939 f5bc de6f 94bd
00000140: 6fa7 0bbd b730 563c 2139 8bbc 9188 03be
00000150: 8c8d 8a3d 37d0 04be 4d13 a4bd 482b d6bd
00000160: 76af 11bd 5207 823d 0fd9 0abb 0e31 fe3c
00000170: 34df a3bc 64af 093d 2ee4 603d c784 f0bb
00000180: 50f7 58bc 8335 c2bd 1fb8 00bd d7d0 e0bc
00000190: 4eec b5bd c2a1 a83d bf58 22bd e1c0 d9bd
000001a0: 8e24 0d3d e793 cc3d b939 c9bd 055e 8f3d
000001b0: 2e97 82bd e5b5 3b3d d8e1 1bbe 48cc afbc
000001c0: b0fa 3d3d 83b4 853d 2e4c d03b 5fda 0b3d
000001d0: 7f45 723d b31d 88bd 60c5 933d fcb2 183d
000001e0: 0440 9c3d 4b5f a93b bf2d d4bd c7bd 81bd
000001f0: 19c0 0bbe a13f c0bd 63c7 4cbc 23a1 553d
00000200: d7fc 043e d86a a23d 28da b5bd a79c a2bd
00000210: e717 a9bd a31f 81bd f454 0f3e 315a 14bd
00000220: d2a6 07bd bd7b c83d 2370 f9bd eb00 bf3c
00000230: 4e4c 8a3d 2cb3 003d bfde aebd bf41 c43d
00000240: 771d adbd c07b 4b3d 61e9 f33a 128b d6bd
00000250: 9fd9 07be fe4a 863c 3f97 9bbd 0f48 1e3c
00000260: 1f1b dfbd d87d cf3d 86a6 e1bd 9200 19be
00000270: 2d96 27bd 5b37 713d 8c7b aebd 1eb4 003d
00000280: 9f52 c4bc 3d4d 78bb c452 803d 48a3 0a3d
00000290: e89e 15be 9f25 9bbd 5ce4 e1bc 4f36 acbd
000002a0: b972 9cbd d8aa 8f3d 1d76 edbc 104d 8cbc
000002b0: b7f6 0cbe cfa0 0dbe 43aa 5ebd b7dd c2bd
000002c0: da6e cdbd cab2 883d 9198 c53d 0133 f0bd
000002d0: 4d7b ef3d 5b16 da3d 8f0b 84bd bdeb aabd
000002e0: c570 c2bd c889 7f3d bff6 15be f8b7 963d
000002f0: 6154 05be 7e1a 91bd 843b 1abe 8f26 a7bd
00000300: 5981 d83d cb9d c2bd 822d f23c 9282 0bbd
00000310: c73c 923d 2c4e cf3d 138d 093e ed8f f83d
00000320: fb87 bebd 38da 023d ae5d e2bb c40d 103e
00000330: c25c 3fbd 07ab 333d 7f0f 9fbd 58f9 c3bc
00000340: 65aa 11be ff03 e13d 0610 793d 3343 a1bd
00000350: 071b 633d 1a1f cdbd 94a4 b73d be41 0d3e
00000360: a2f4 92bd a8e4 6c3b 7ea7 65bc ac55 1f3d
00000370: c930 133d d573 76bd 2c4e ac3b 9d5b 29bb
00000380: e048 c63d c305 ba3d 36ce 04be 8df8 9c3d
00000390: 71bb 363d 870c cf3c 4e44 00be 3036 783d
000003a0: aba6 863d 6a53 9abd e404 11bd 965b c93b
000003b0: af25 9bbd cfa5 f93c f326 843d e384 28bd
000003c0: c449 99bd 94bf 2ebd 7445 243c 510e d4ba
000003d0: 96ef f33d 3cee 1e3e 37d9 913c 40f3 52bc
000003e0: 5a43 f7bc e245 e8bc 5031 6b3d 7274 e63d
000003f0: 0dd4 953d f547 d4bd 607d 3d3d c2e7 7c3d

lstm.bias_ih_l1 f4 [256]
0.15927006 0.15050775 0.06541794 0.094022036 0.001806353 -0.018167844 0.023010446 0.12535872
-0.054880764 0.07786874 0.14936922 0.030344041 -0.09552991 0.062145907 0.03228944 0.09813552
0.086271785 0.07035987 -0.07361676 -0.091802396 0.07140898 0.015991602 0.08164513 -0.05460307
-0.09111527 -0.04704894 -0.0049803546 0.03423921 0.110081576 0.04404561 -0.0995492 -0.04782681
0.12779859 0.052414946 0.020174038 0.01813857 -0.022111861 0.049821023 -0.015293934 -0.07608855
-0.08957614 -0.028759265 -0.048341677 0.08292805 0.03723115 0.090437934 0.07096404 -0.07708522
-0.08062129 -0.029979322 0.14302464 -0.0052919104 0.12541625 0.07013017 0.01453001 0.11961346
-0.017303633 0.050110865 -0.037002396 -0.07938501 0.048948724 -0.021170128 0.022576215 -0.06983632
-0.054139324 0.15473561 0.13268381 0.09687679 0.11023248 -0.071913265 -0.06920912 -0.089120366
0.057164215 -0.07459912 -0.07068582 0.12172796 0.04927534 0.07873578 -0.03558008 -0.08824452
0.07014597 0.052039206 0.022497838 0.048334435 0.09351742 -0.084006675 -0.078681774 -0.011122572
0.084395096 0.061234925 0.04211938 0.023728617 -0.05348519 0.013947326 0.13585208 0.07809946
0.13611607 0.02203789 -0.03581993 -0.06662437 -0.060198043 0.06848284 0.12639672 0.021005388
-0.026659878 0.08347428 -0.03428875 -0.06900531 -0.069744006 -0.09066742 0.1493436 0.0060999068
0.057195075 -0.04736358 0.11148711 0.1431739 -0.04940219 -0.046313178 0.03064059 -0.035113093
0.014027301 0.042654335 -0.003458702 0.013417353 0.12386673 0.03468719 -0.081462644 -0.00030067135
-0.07765281 -0.002271854 0.003563923 -0.03941409 0.028981537 0.036301997 -0.05759106 0.118766546
-0.06395992 -0.12195439 0.03443972 0.014969477 0.023092376 0.06162385 0.055639066 0.10379711
0.08310693 0.061008394 0.1474033 -0.1211589 -0.12469368 0.081516564 0.032055687 0.029909747
0.10964363 -0.08737153 0.03759211 -0.14251463 -0.04171283 0.10203666 -0.08513986 0.010804608
0.018066667 -0.1266315 -0.04811194 0.008656049 -0.07531941 0.009647873 0.019286478 -0.15745407
0.07485159 0.05661331 0.055463266 0.013560084 -0.09112785 0.07669836 0.04604568 -0.054778337
-0.03230366 -0.09339506 -0.08102839 -0.02928303 -0.031078368 -0.079180226 -0.07530882 0.0075274226
-0.14203599 -0.11328661 0.014140013 -0.0053955656 -0.020715177 -0.08864353 0.070944585 0.07224479
0.11046307 0.008645449 0.06864456 0.07031844 -0.009980399 0.1714495 0.08346087 0.09442599
0.08344474 0.033625927 0.21602114 0.21668297 0.0031492794 -0.021061303 -0.02390517 0.08246039
-0.011316127 0.1274388 0.07640762 0.04735115 0.121949755 0.08152982 0.01863613 0.0007668756
0.10239604 0.15981565 0.13793251 0.19851364 0.061768148 -0.01521827 0.16520588 0.14045747
0.17448361 0.07772323 0.09209763 0.105159335 0.108278155 0.044941097 0.108378865 0.044287182
-0.0075154174 0.1449527 0.07617745 0.013064732 0.0066577983 -0.029339926 -0.0019967682 0.21228987
0.009313626 0.16766338 0.12554362 0.0726218 0.11678589 0.0060392376 0.051248148 0.033423446
0.14834002 0.12236239 0.18302058 0.16573189 0.111337915 0.09587624 0.19249439 0.052338403
00000000: b117 233e b41e 1a3e d7f9 853d a08e c03d
00000010: 26c3 ec3a bbd4 94bc 6780 bc3c 095e 003e
00000020: a7ca 60bd a579 9f3d 3ff4 183e 1194 f83c
00000030: 2fa5 c3bd b58c 7e3d ef41 043d 47fb c83d
00000040: 43af b03d d618 903d 62c4 96bd e502 bcbd
00000050: df3e 923d d200 833c 9035 a73d 78a7 5fbd
00000060: a59a babd 64b6 40bd 3e32 a3bb 6a3e 0c3d
00000070: 7372 e13d 2b69 343d 73e0 cbbd 0ce6 43bd
00000080: a2dd 023e 0eb1 563d 0644 a53c 5797 943c
00000090: ef23 b5bc 2111 4c3d 6993 7abc 50d4 9bbd
000000a0: b273 b7bd 8d98 ebbc ec01 46bd 2ed6 a93d
000000b0: b17f 183d 8637 b93d 9855 913d dbde 9dbd
000000c0: c61c a5bd 3297 f5bc 0d75 123e c367 adbb
000000d0: 1e6d 003e 68a0 8f3d 470f 6e3c e7f7 f43d
000000e0: 59c0 8dbc 0d41 4d3d d38f 17bd 9c94 a2bd
000000f0: 757e 483d fa6c adbc c1f1 b83c 5806 8fbd
00000100: 32c1 5dbd 0373 1e3e 44de 073e 5767 c63d
00000110: 91c1 e13d 4347 93bd 83bd 8dbd bd84 b6bd
00000120: 0625 6a3d 6cc7 98bd bac3 90bd 824c f93d
00000130: f0d4 493d 3a40 a13d 6bbc 11bd 8bb9 b4bd
00000140: b1a8 8f3d 1027 553d 634d b83c 54fa 453d
00000150: 1086 bf3d b10b acbd e923 a1bd 733b 36bc
00000160: 56d7 ac3d 79d1 7a3d 5f85 2c3d 8462 c23c
00000170: 4913 5bbd 5383 643c cf1c 0b3e 9cf2 9f3d
00000180: 0362 0b3e ce88 b43c ebb7 12bd 5c72 88bd
00000190: 3992 76bd bb40 8c3d 246e 013e 7e13 ac3c
000001a0: d165 dabc 90f4 aa3d 5c72 0cbd a852 8dbd
000001b0: f2d5 8ebd d7af b9bd 87ed 183e bae1 c73b
000001c0: 6245 6a3d 5000 42bd 5b53 e43d 2e9c 123e
000001d0: f359 4abd e3b2 3dbd f901 fb3c bfd2 0fbd
000001e0: c4d2 653c 50b6 2e3d 64ab 62bb 75d4 5b3c
000001f0: d7ad fd3d 2814 0e3d e3d5 a6bd 6da3 9db9
00000200: 7008 9fbd 63e3 14bb b590 693b ab70 21bd
00000210: b06a ed3c 67b1 143d 9ae4 6bbd e03b f33d
00000220: 6bfd 82bd 39c3 f9bd aa10 0d3d 8a42 753c
00000230: 392c bd3c 4a69 7c3d cae5 633d 9493 d43d
00000240: f733 aa3d f0e3 793d e4f0 163e 2822 f8bd
00000250: 665f ffbd 28f2 a63d d34c 033d 4905 f53c
00000260: d78c e03d d8ef b2bd 2ffa 193d 5bef 11be
00000270: 13db 2abd 99f8 d03d cf5d aebd d005 313c
00000280: 8c00 943c b0ab 01be 0711 45bd 1ad2 0d3c
00000290: 1041 9abd 1d12 1e3c adfe 9d3c a43b 21be
000002a0: ca4b 993d 5ce3 673d 732d 633d 1d2b 5e3c
000002b0: 3da1 babd 0814 9d3d 659a 3c3d 405f 60bd
000002c0: d850 04bd e945 bfbd 36f2 a5bd f7e2 efbc
000002d0: 1098 febc 3e29 a2bd 833b 9abd 99a8 f63b
000002e0: e271 11be cf02 e8bd 83ab 673c 49cd b0bb
000002f0: e0b2 a9bc bd8a b5bd 654b 913d 14f5 933d
00000300: 763a e23d a4a5 0d3c 8595 8c3d 1d03 903d
00000310: d484 23bc 7590 2f3e 88ed aa3d 6a62 c13d
00000320: 13e5 aa3d 57bb 093d a534 5d3e 24e2 5d3e
00000330: 2464 4e3b c188 acbc c6d4 c3bc fee0 a83d
00000340: 4767 39bc 517f 023e 997b 9c3d 48f3 413d
00000350: cbc0 f93d 1bf9 a63d ccaa 983c 2608 493a
00000360: 04b5 d13d b7a6 233e 2e3e 0d3e 2947 4b3e
00000370: 9900 7d3d 0d56 79bc bb2b 293e 15d4 0f3e
00000380: d5ab 323e 5b2d 9f3d af9d bc3d c75d d73d
00000390: f0c0 dd3d 2814 383d bdf5 dd3d 7a66 353d
000003a0: e443 f6bb 7b6e 143e ec02 9c3d 750d 563c
000003b0: a929 da3b 495a f0bc 36dc 02bb 8462 593e
000003c0: 2e98 183c f3af 2b3e 828e 003e bdba 943d
000003d0: 712d ef3d cce4 c53b 94e9 513d 06e7 083d
000003e0: 72e6 173e 2299 fa3d bf69 3b3e 9fb5 293e
000003f0: 2205 e43d c35a c43d 401d 453e cb60 563d
